…
      "content_license": "CC BY-SA 4.0",
      "body": "<p>Yes, you can get exact Keras representation, using the <a href=\"https://github.com/sksq96/pytorch-summary\" rel=\"noreferrer\">pytorch-summary</a> package.</p>\n<p>Example for VGG16:</p>\n<pre><code>from torchvision import models\nfrom torchsummary import summary\n\nvgg = models.vgg16()\nsummary(vgg, (3, 224, 224))\n\n----------------------------------------------------------------\n        Layer (type)               Output Shape         Param #\n================================================================\n            Conv2d-1         [-1, 64, 224, 224]           1,792\n              ReLU-2         [-1, 64, 224, 224]               0\n            Conv2d-3         [-1, 64, 224, 224]          36,928\n              ReLU-4         [-1, 64, 224, 224]               0\n         MaxPool2d-5         [-1, 64, 112, 112]               0\n            Conv2d-6        [-1, 128, 112, 112]          73,856\n              ReLU-7        [-1, 128, 112, 112]               0\n            Conv2d-8        [-1, 128, 112, 112]         147,584\n              ReLU-9        [-1, 128, 112, 112]               0\n        MaxPool2d-10          [-1, 128, 56, 56]               0\n           Conv2d-11          [-1, 256, 56, 56]         295,168\n             ReLU-12          [-1, 256, 56, 56]               0\n           Conv2d-13          [-1, 256, 56, 56]         590,080\n             ReLU-14          [-1, 256, 56, 56]               0\n           Conv2d-15          [-1, 256, 56, 56]         590,080\n             ReLU-16          [-1, 256, 56, 56]               0\n        MaxPool2d-17          [-1, 256, 28, 28]               0\n           Conv2d-18          [-1, 512, 28, 28]       1,180,160\n             ReLU-19          [-1, 512, 28, 28]               0\n           Conv2d-20          [-1, 512, 28, 28]       2,359,808\n             ReLU-21          [-1, 512, 28, 28]               0\n           Conv2d-22          [-1, 512, 28, 28]       2,359,808\n             ReLU-23          [-1, 512, 28, 28]               0\n        MaxPool2d-24          [-1, 512, 14, 14]               0\n           Conv2d-25          [-1, 512, 14, 14]       2,359,808\n             ReLU-26          [-1, 512, 14, 14]               0\n           Conv2d-27          [-1, 512, 14, 14]       2,359,808\n             ReLU-28          [-1, 512, 14, 14]               0\n           Conv2d-29          [-1, 512, 14, 14]       2,359,808\n             ReLU-30          [-1, 512, 14, 14]               0\n        MaxPool2d-31            [-1, 512, 7, 7]               0\n           Linear-32                 [-1, 4096]     102,764,544\n             ReLU-33                 [-1, 4096]               0\n          Dropout-34                 [-1, 4096]               0\n           Linear-35                 [-1, 4096]      16,781,312\n             ReLU-36                 [-1, 4096]               0\n          Dropout-37                 [-1, 4096]               0\n           Linear-38                 [-1, 1000]       4,097,000\n================================================================\nTotal params: 138,357,544\nTrainable params: 138,357,544\nNon-trainable params: 0\n----------------------------------------------------------------\nInput size (MB): 0.57\nForward/backward pass size (MB): 218.59\nParams size (MB): 527.79\nEstimated Total Size (MB): 746.96\n----------------------------------------------------------------\n</code></pre>\n"
…
      "body": "<p>The <a href=\"https://github.com/TylerYep/torchinfo\" rel=\"nofollow noreferrer\"><code>torchinfo</code></a> (formerly <code>torchsummary</code>) package produces analogous output to Keras<sup>1</sup> (for a given input shape):<sup>2</sup></p>\n<pre class=\"lang-py prettyprint-override\"><code>from torchinfo import summary\n\nmodel = ConvNet()\nbatch_size = 16\nsummary(model, input_size=(batch_size, 1, 28, 28))\n</code></pre>\n<pre class=\"lang-bash prettyprint-override\"><code>==========================================================================================\nLayer (type:depth-idx)                   Output Shape              Param #\n==========================================================================================\n├─Conv2d (conv1): 1-1                    [5, 10, 24, 24]           260\n├─Conv2d (conv2): 1-2                    [5, 20, 8, 8]             5,020\n├─Dropout2d (conv2_drop): 1-3            [5, 20, 8, 8]             --\n├─Linear (fc1): 1-4                      [5, 50]                   16,050\n├─Linear (fc2): 1-5                      [5, 10]                   510\n==========================================================================================\nTotal params: 21,840\nTrainable params: 21,840\nNon-trainable params: 0\nTotal mult-adds (M): 7.69\n==========================================================================================\nInput size (MB): 0.05\nForward/backward pass size (MB): 0.91\nParams size (MB): 0.09\nEstimated Total Size (MB): 1
…
ch size we provide.</p>\n<p>If we set <code>summary(alexnet, (3, 224, 224), 32)</code> this means use the <code>bs=32</code>.</p>\n<pre><code>summary(model, input_size, batch_size=-1, device='cuda')\n</code></pre>\n<hr />\n<p>Out:</p>\n<pre><code>Help on function summary in module torchsummary.torchsummary:\n\nsummary(model, input_size, batch_size=-1, device='cuda')\n\n----------------------------------------------------------------\n        Layer (type)               Output Shape         Param #\n================================================================\n            Conv2d-1           [32, 64, 55, 55]          23,296\n              ReLU-2           [32, 64, 55, 55]               0\n         MaxPool2d-3           [32, 64, 27, 27]               0\n            Conv2d-4          [32, 192, 27, 27]         307,392\n              ReLU-5          [32, 192, 27, 27]               0\n         MaxPool2d-6          [32, 192, 13, 13]               0\n            Conv2d-7          [32, 384, 13, 13]         663,936\n              ReLU-8          [32, 384, 13, 13]               0\n            Conv2d-9          [32, 256, 13, 13]         884,992\n             ReLU-10          [32, 256, 13, 13]               0\n           Conv2d-11          [32, 256, 13, 13]         590,080\n             ReLU-12          [32, 256, 13, 13]               0\n        MaxPool2d-13            [32, 256, 6, 6]               0\nAdaptiveAvgPool2d-14            [32, 256, 6, 6]               0\n          Dropout-15                 [32, 9216]               0\n           Linear-16                 [32, 4096]      37,752,832\n             ReLU-17                 [32, 4096]               0\n          Dropout-18                 [32, 4096]               0\n           Linear-19                 [32, 4096]      16,781,312\n             ReLU-20                 [32, 4096]               0\n           Linear-21                 [32, 1000]       4,097,000\n================================================================\nTotal params: 61,100,840\nTrainable params: 61,100,840\nNon-trainable params: 0\n----------------------------------------------------------------\nInput size (MB): 18.38\nForward/backward pass size (MB): 268.12\nParams size (MB): 233.08\nEstimated Total Size (MB): 519.58\n-----------------------------------------------------------
…
